Old/model.tflite (tflite, 14340 bytes, 2 tensors)

sequential/dense/MatMul f4 [8, 400]
000000 d3 af dd bc c3 3f 43 bd f2 26 fa 3c d3 19 45 3d
       -0.027061379 -0.04766823 0.030536149 0.04812033
000010 72 f6 99 3c b0 bc c0 bb dd e4 1e 3d 86 db 89 bc
       0.018794272 -0.0058818683 0.03879248 -0.01682831
000020 b3 7e d4 bc 82 32 94 3c 30 34 85 bb c2 85 f1 3c
       -0.025939321 0.01809049 -0.004065059 0.029482726
000030 e3 3b 08 3d 53 1f 1a bd 80 7e 8b 3b d8 e9 43 bc
       0.033260237 -0.03762753 0.0042570233 -0.011957608
000040 18 6b 0b 3c 5d 97 3c 3d 27 c8 48 3d f6 c6 28 bd
       0.00850942 0.04604279 0.049019005 -0.04120537
000050 b2 55 90 3c 9d 00 3e bd b0 f7 e1 bb 80 38 d1 bb
       0.017618988 -0.046387304 -0.0068959817 -0.006384909
000060 80 1f 94 bb 76 ea 04 bd 56 fa 03 bd 60 46 79 bb
       -0.0045203567 -0.032450162 -0.03222116 -0.0038036332
000070 fa d8 b8 bc 00 83 5a b9 64 78 67 3c 40 23 1a 3c
       -0.0225644 -0.00020838901 0.014127824 0.009407818
000080 a7 84 0c 3d 98 ac 91 bb 97 aa 06 3d 00 d8 db ba
       0.034306195 -0.0044456236 0.03287753 -0.0016772747
000090 68 76 db bb 0c cb 42 bc 4e 38 b6 3c bd 5c 1a 3d
       -0.0066974647 -0.01188923 0.022243645 0.0376861
0000a0 b0 e6 31 bd 09 db 44 3d 4c c8 38 3c 03 30 46 3d
       -0.04343289 0.04806045 0.011278223 0.04838563
0000b0 40 13 19 ba 42 47 ae 3c 7a 07 f8 3c 51 b4 19 3d
       -0.0005839355 0.021274213 0.030277003 0.03752548
0000c0 f2 fb d3 3c a7 f3 32 3d 04 0b 71 3c bd dd 00 3d
       0.025876973 0.043689396 0.014712099 0.031461466
0000d0 cc e8 09 3c 34 0e 0e 3c 81 8b 1a 3d 23 d6 31 3d
       0.0084173195 0.0086703785 0.037730698 0.043417107
0000e0 0d bd ca bc e9 b2 3e 3d d0 56 ca 3b a0 6e 49 bd
       -0.02474835 0.04655734 0.0061748996 -0.049177766
0000f0 ed 5f fd bc 40 d9 75 bc c2 f5 91 3c 2d 12 c7 bc
       -0.03092953 -0.01500541 0.017817382 -0.02430066
000100 4a 18 33 bd e3 16 09 3d b0 9c c9 3b 60 90 fa ba
       -0.043724336 0.033469092 0.006152712 -0.0019116513
000110 d3 7e 17 3d 00 00 ee b8 8c be 0b 3c 98 33 c4 bb
       0.036986183 -0.000113487244 0.008529317 -0.0059875958
000120 62 7f a9 3c 40 73 14 bd e3 73 16 3d 3a 05 b2 3c
       0.020690624 -0.036242723 0.036731612 0.021731008
000130 f7 76 32 bd 30 06 e9 3b 72 c2 ce 3c 00 08 2d 3b
       -0.043570485 0.0071113333 0.025239203 0.0026402473
000140 4c b7 7f bc 6d a7 2c bd 39 74 4c 3d 00 5a 8a 3a
       -0.015607666 -0.042151857 0.049915526 0.0010555387
000150 3a ed 94 3c 02 93 85 3c e6 b5 a1 3c 60 11 17 3b
       0.018179525 0.01630545 0.019740056 0.0023051128
000160 a4 3b 6c 3c 4c 8f 52 bc f9 91 26 3d 14 3e 00 bd
       0.014418516 -0.012851547 0.040666554 -0.031309202
000170 c7 41 a2 bc e8 41 81 3b 00 09 4b bc 46 f0 85 bc
       -0.019806756 0.003944624 -0.0123922825 -0.016349923
000180 79 80 41 3d 47 c2 cd bc 0d 02 39 3d 5a c4 c0 3c
       0.04724166 -0.025117053 0.04516797 0.023531128
000190 d0 c8 69 bb cd e3 24 3d e6 aa cb 3c 2e e2 e1 3c
       -0.0035672672 0.04025631 0.024861764 0.027573671
0001a0 4d 84 25 3d da b6 cc 3c 18 cf d6 bb da fe 9f bc
       0.040409375 0.024989534 -0.006555449 -0.019530702
0001b0 da 10 ff 3c 26 7a d7 3c 2d f2 f0 bc a2 54 94 3c
       0.031135965 0.026303362 -0.029412353 0.018106762
0001c0 1a 5b f5 bc e2 c2 91 3c cd 7b 16 bd 61 05 07 3d
       -0.029950667 0.017793123 -0.03673916 0.032964114
0001d0 b3 76 b6 bc 40 9c 5e bc d0 20 0e bd 00 fc ec ba
       -0.022273397 -0.013587058 -0.03469926 -0.0018080473
0001e0 ad 6e ac bc 00 4c a1 bb 34 73 14 3c 63 7a 3d 3d
       -0.021048868 -0.00492239 0.00906067 0.046259295
0001f0 31 06 12 3d 0a d9 05 bd 94 9d 92 bc 03 6d 34 bd
       0.035650436 -0.032677688 -0.017897405 -0.044049274
000200 98 2d 2d 3c d1 9e 1a 3d 43 42 01 3d 43 09 34 bd
       0.010569952 0.037749115 0.031557333 -0.043954145
000210 59 8e 3f 3d ed 60 46 bd 30 3c 0e bb 98 ee 86 bb
       0.046766613 -0.04843228 -0.0021703355 -0.004117798
000220 40 09 d8 3a 30 75 0d bb cc a7 70 3c 00 04 2d 3b
       0.0016482249 -0.0021584742 0.014688443 0.002640009
000230 e7 e1 2c bd 5a 8c b6 3c 13 60 f9 bc 99 e0 40 3d
       -0.042207625 0.022283722 -0.03044132 0.047089193
000240 6a dc 11 bd 7a 4a dd 3c 40 3f 07 3a ed 14 18 bd
       -0.035610594 0.027013052 0.00051592663 -0.03712933
000250 d6 22 09 bd f3 76 4b bd dd dc 4b bd 49 1f 0e 3d
       -0.033480488 -0.049673986 -0.04977118 0.034697805
000260 bd 43 33 bd 37 51 08 3d 06 89 17 bd dc df 4d 3c
       -0.043765772 0.033280578 -0.03699591 0.012565579
000270 53 2c 34 3d 00 46 4d 3b 4e 38 93 3c ad c6 21 3d
       0.043987583 0.003132224 0.017971184 0.039496113
000280 a0 bc 26 bd 6e 25 a1 3c ca 64 40 bd e8 ae fa bb
       -0.04070723 0.019671168 -0.04697112 -0.007650245
000290 04 bc 01 bd 47 bf b0 bc 6e 94 ed 3c b4 22 0d bc
       -0.031673446 -0.021575583 0.02900144 -0.008614231
0002a0 fd 41 0f 3d 60 e4 7f 3b 40 eb eb 3a e0 f1 45 bd
       0.03497504 0.0039046034 0.0017999187 -0.048326373
0002b0 d2 1c cc 3c 00 69 a3 bc 09 3f 30 3d c0 ce fc 3a
       0.024916086 -0.019947529 0.043028865 0.001928769
0002c0 56 09 11 bd c3 b1 10 3d 40 8b b8 bc 86 7e f6 3c
       -0.035409294 0.035325777 -0.022527337 0.030089628
0002d0 80 4c ff bc 36 1c 23 bd d0 94 38 bb ad af d1 bc
       -0.031164408 -0.039821826 -0.002816487 -0.025596464
0002e0 18 6f f9 3b f7 bb 24 3d 82 3d f5 3c c2 be c3 3c
       0.0076121204 0.04021832 0.029936556 0.023894671
0002f0 44 bd 56 3c 93 a2 36 bd 6c 70 90 bc a2 fb fc 3c
       0.013106648 -0.044588637 -0.017631732 0.030881707
000300 40 6e ee bc 4e 87 c7 3c 62 87 ca 3c e8 60 8d bb
       -0.029105306 0.02435651 0.024722759 -0.0043145306
000310 ad 96 09 3d e3 b7 23 3d ba ff 36 bd f7 b2 45 3d
       0.03359096 0.03997029 -0.044677474 0.048266377
000320 b3 84 0d 3d c0 bb 26 bc 3a da 91 3c 27 6e ba bc
       0.03455038 -0.010176599 0.017804254 -0.022757603
000330 8e 5e a5 3c 4a 7d 00 bd ca f3 28 bd f4 e3 09 3c
       0.020186689 -0.031369485 -0.04124812 0.008416165
000340 a8 b6 57 bc 76 df 19 bd 19 41 4b 3d 0c df 7a 3c
       -0.013166107 -0.037566625 0.04962263 0.015311968
000350 0c 05 8b bc 49 33 1d 3d 47 1e 9d bc 40 40 05 bc
       -0.01697018 0.038378987 -0.019179476 -0.008132994
000360 a6 71 8a 3c 00 b3 7f b9 60 9e e2 ba c0 f2 d6 bc
       0.016899895 -0.00024385378 -0.0017289631 -0.0262388
000370 00 4b ad bb cc e7 0f 3c e6 b1 1f bd 74 eb 48 3c
       -0.0052884817 0.008783292 -0.038988017 0.012263168
000380 34 3f 03 3c c0 c3 47 bc 22 36 a5 3c 47 3c ff bc
       0.008010674 -0.0121926665 0.020167414 -0.031156672
000390 71 36 0b 3d 8c 06 24 3c 40 0b 1d bc cd c7 ca bc
       0.033987466 0.0100113265 -0.009585202 -0.024753476
0003a0 70 a6 0b bd 00 df 47 bb b4 99 15 bc ad ec 21 bd
       -0.034094274 -0.0030497909 -0.009130884 -0.039532352
0003b0 00 41 0b 3c 71 21 06 3d 8d df 2c 3d 7a af be bc
       0.008499384 0.032746736 0.042205382 -0.023277033
0003c0 40 b4 4c bd 61 05 0d 3d b3 18 14 3d c6 5d 96 3c
       -0.049976587 0.034428958 0.036156368 0.018355262
0003d0 09 ff 16 3d 9c fb 5c 3c 93 17 a6 bc 44 96 4d 3c
       0.036864314 0.013487723 -0.020274913 0.012548033
0003e0 d0 53 15 3b c6 e2 27 bd 8d 45 d7 bc 8e 97 ca 3c
       0.0022785552 -0.040987752 -0.026278282 0.02473047
0003f0 e0 21 4b bd 0a 7d 26 bd 3a fd 28 bd da 96 f0 3c
       -0.049592853 -0.04064659 -0.04125712 0.029368807

sequential/dense_1/MatMul f4 [3, 8]
000000 e8 b2 f0 3b 30 69 88 3b 80 16 18 3a 50 a5 d9 bb
       0.007345546 0.00416293 0.00058016926 -0.0066420212
000010 68 c3 e1 bb c6 98 87 bc 9a 9d 30 bd 59 9f 28 3d
       -0.0068897493 -0.01655234 -0.04311905 0.04116759
000020 43 81 20 bd c0 e8 2d 3a a6 85 d1 3c 8d 95 af bc
       -0.039185774 0.0006634109 0.025576424 -0.021433616
000030 00 d4 95 b8 b0 cc 21 bd 4d 08 2d 3d 60 63 3c bb
       -7.144362e-05 -0.039501846 0.042244244 -0.0028745756
000040 3a 5e 13 bd 3a f1 e7 bc fa 7f f4 bc 7d a9 30 bd
       -0.035978533 -0.028313268 -0.02984618 -0.043130387
000050 f2 d9 dd 3c 70 2d 46 bd 61 f1 03 3d 98 1e 95 3b
       0.027081463 -0.048383176 0.03221262 0.004550766
